DEDRN(
  (fea_conv): BSConvU(
    (pw): Conv2d(12, 58, kernel_size=(1, 1), stride=(1, 1), bias=False)
    (dw): Conv2d(58, 58, kernel_size=(3, 3), stride=(1, 1), padding=(1, 1), groups=58)
  )
  (B1): B9(
    (c1_1): BSConvU(
      (pw): Conv2d(58, 29, kernel_size=(1, 1), stride=(1, 1), bias=False)
      (dw): Conv2d(29, 29, kernel_size=(3, 3), stride=(1, 1), padding=(1, 1), groups=29)
    )
    (c1_2): BSConvU(
      (pw): Conv2d(29, 58, kernel_size=(1, 1), stride=(1, 1), bias=False)
      (dw): Conv2d(58, 58, kernel_size=(3, 3), stride=(1, 1), padding=(1, 1), groups=58)
    )
    (c2_1): BSConvU(
      (pw): Conv2d(58, 29, kernel_size=(1, 1), stride=(1, 1), bias=False)
      (dw): Conv2d(29, 29, kernel_size=(3, 3), stride=(1, 1), padding=(3, 3), dilation=(3, 3), groups=29)
    )
    (c2_2): BSConvU(
      (pw): Conv2d(29, 58, kernel_size=(1, 1), stride=(1, 1), bias=False)
      (dw): Conv2d(58, 58, kernel_size=(3, 3), stride=(1, 1), padding=(1, 1), groups=58)
    )
    (c3_1): BSConvU(
      (pw): Conv2d(58, 29, kernel_size=(1, 1), stride=(1, 1), bias=False)
      (dw): Conv2d(29, 29, kernel_size=(3, 3), stride=(1, 1), padding=(5, 5), dilation=(5, 5), groups=29)
    )
    (c3_2): BSConvU(
      (pw): Conv2d(29, 58, kernel_size=(1, 1), stride=(1, 1), bias=False)
      (dw): Conv2d(58, 58, kernel_size=(3, 3), stride=(1, 1), padding=(1, 1), groups=58)
    )
    (c3): BSConvU(
      (pw): Conv2d(58, 29, kernel_size=(1, 1), stride=(1, 1), bias=False)
      (dw): Conv2d(29, 29, kernel_size=(3, 3), stride=(1, 1), padding=(1, 1), groups=29)
    )
    (d1): Conv2d(58, 29, kernel_size=(1, 1), stride=(1, 1), bias=False)
    (d2): Conv2d(87, 29, kernel_size=(1, 1), stride=(1, 1), bias=False)
    (d3): Conv2d(87, 29, kernel_size=(1, 1), stride=(1, 1), bias=False)
    (act): GELU(approximate='none')
    (c5): Conv2d(116, 58, kernel_size=(1, 1), stride=(1, 1))
    (esa): ESA(
      (conv1): Conv2d(58, 14, kernel_size=(1, 1), stride=(1, 1))
      (conv_f): Conv2d(14, 14, kernel_size=(1, 1), stride=(1, 1))
      (maxPooling): MaxPool2d(kernel_size=7, stride=3, padding=0, dilation=1, ceil_mode=False)
      (conv_max): BSConvU(
        (pw): Conv2d(14, 14, kernel_size=(1, 1), stride=(1, 1), bias=False)
        (dw): Conv2d(14, 14, kernel_size=(3, 3), stride=(1, 1), padding=(1, 1), groups=14)
      )
      (conv2): BSConvU(
        (pw): Conv2d(14, 14, kernel_size=(1, 1), stride=(1, 1), bias=False)
        (dw): Conv2d(14, 14, kernel_size=(3, 3), stride=(2, 2), groups=14)
      )
      (conv3): BSConvU(
        (pw): Conv2d(14, 14, kernel_size=(1, 1), stride=(1, 1), bias=False)
        (dw): Conv2d(14, 14, kernel_size=(3, 3), stride=(1, 1), padding=(1, 1), groups=14)
      )
      (conv3_): BSConvU(
        (pw): Conv2d(14, 14, kernel_size=(1, 1), stride=(1, 1), bias=False)
        (dw): Conv2d(14, 14, kernel_size=(3, 3), stride=(1, 1), padding=(1, 1), groups=14)
      )
      (conv4): Conv2d(14, 58, kernel_size=(1, 1), stride=(1, 1))
      (sigmoid): Sigmoid()
      (GELU): GELU(approximate='none')
    )
    (cca): CCALayer(
      (avg_pool): AdaptiveAvgPool2d(output_size=1)
      (conv_du): Sequential(
        (0): Conv2d(58, 3, kernel_size=(1, 1), stride=(1, 1))
        (1): ReLU(inplace=True)
        (2): Conv2d(3, 58, kernel_size=(1, 1), stride=(1, 1))
        (3): Sigmoid()
      )
    )
  )
  (B2): B9(
    (c1_1): BSConvU(
      (pw): Conv2d(58, 29, kernel_size=(1, 1), stride=(1, 1), bias=False)
      (dw): Conv2d(29, 29, kernel_size=(3, 3), stride=(1, 1), padding=(1, 1), groups=29)
    )
    (c1_2): BSConvU(
      (pw): Conv2d(29, 58, kernel_size=(1, 1), stride=(1, 1), bias=False)
      (dw): Conv2d(58, 58, kernel_size=(3, 3), stride=(1, 1), padding=(1, 1), groups=58)
    )
    (c2_1): BSConvU(
      (pw): Conv2d(58, 29, kernel_size=(1, 1), stride=(1, 1), bias=False)
      (dw): Conv2d(29, 29, kernel_size=(3, 3), stride=(1, 1), padding=(3, 3), dilation=(3, 3), groups=29)
    )
    (c2_2): BSConvU(
      (pw): Conv2d(29, 58, kernel_size=(1, 1), stride=(1, 1), bias=False)
      (dw): Conv2d(58, 58, kernel_size=(3, 3), stride=(1, 1), padding=(1, 1), groups=58)
    )
    (c3_1): BSConvU(
      (pw): Conv2d(58, 29, kernel_size=(1, 1), stride=(1, 1), bias=False)
      (dw): Conv2d(29, 29, kernel_size=(3, 3), stride=(1, 1), padding=(5, 5), dilation=(5, 5), groups=29)
    )
    (c3_2): BSConvU(
      (pw): Conv2d(29, 58, kernel_size=(1, 1), stride=(1, 1), bias=False)
      (dw): Conv2d(58, 58, kernel_size=(3, 3), stride=(1, 1), padding=(1, 1), groups=58)
    )
    (c3): BSConvU(
      (pw): Conv2d(58, 29, kernel_size=(1, 1), stride=(1, 1), bias=False)
      (dw): Conv2d(29, 29, kernel_size=(3, 3), stride=(1, 1), padding=(1, 1), groups=29)
    )
    (d1): Conv2d(58, 29, kernel_size=(1, 1), stride=(1, 1), bias=False)
    (d2): Conv2d(87, 29, kernel_size=(1, 1), stride=(1, 1), bias=False)
    (d3): Conv2d(87, 29, kernel_size=(1, 1), stride=(1, 1), bias=False)
    (act): GELU(approximate='none')
    (c5): Conv2d(116, 58, kernel_size=(1, 1), stride=(1, 1))
    (esa): ESA(
      (conv1): Conv2d(58, 14, kernel_size=(1, 1), stride=(1, 1))
      (conv_f): Conv2d(14, 14, kernel_size=(1, 1), stride=(1, 1))
      (maxPooling): MaxPool2d(kernel_size=7, stride=3, padding=0, dilation=1, ceil_mode=False)
      (conv_max): BSConvU(
        (pw): Conv2d(14, 14, kernel_size=(1, 1), stride=(1, 1), bias=False)
        (dw): Conv2d(14, 14, kernel_size=(3, 3), stride=(1, 1), padding=(1, 1), groups=14)
      )
      (conv2): BSConvU(
        (pw): Conv2d(14, 14, kernel_size=(1, 1), stride=(1, 1), bias=False)
        (dw): Conv2d(14, 14, kernel_size=(3, 3), stride=(2, 2), groups=14)
      )
      (conv3): BSConvU(
        (pw): Conv2d(14, 14, kernel_size=(1, 1), stride=(1, 1), bias=False)
        (dw): Conv2d(14, 14, kernel_size=(3, 3), stride=(1, 1), padding=(1, 1), groups=14)
      )
      (conv3_): BSConvU(
        (pw): Conv2d(14, 14, kernel_size=(1, 1), stride=(1, 1), bias=False)
        (dw): Conv2d(14, 14, kernel_size=(3, 3), stride=(1, 1), padding=(1, 1), groups=14)
      )
      (conv4): Conv2d(14, 58, kernel_size=(1, 1), stride=(1, 1))
      (sigmoid): Sigmoid()
      (GELU): GELU(approximate='none')
    )
    (cca): CCALayer(
      (avg_pool): AdaptiveAvgPool2d(output_size=1)
      (conv_du): Sequential(
        (0): Conv2d(58, 3, kernel_size=(1, 1), stride=(1, 1))
        (1): ReLU(inplace=True)
        (2): Conv2d(3, 58, kernel_size=(1, 1), stride=(1, 1))
        (3): Sigmoid()
      )
    )
  )
  (B3): B9(
    (c1_1): BSConvU(
      (pw): Conv2d(58, 29, kernel_size=(1, 1), stride=(1, 1), bias=False)
      (dw): Conv2d(29, 29, kernel_size=(3, 3), stride=(1, 1), padding=(1, 1), groups=29)
    )
    (c1_2): BSConvU(
      (pw): Conv2d(29, 58, kernel_size=(1, 1), stride=(1, 1), bias=False)
      (dw): Conv2d(58, 58, kernel_size=(3, 3), stride=(1, 1), padding=(1, 1), groups=58)
    )
    (c2_1): BSConvU(
      (pw): Conv2d(58, 29, kernel_size=(1, 1), stride=(1, 1), bias=False)
      (dw): Conv2d(29, 29, kernel_size=(3, 3), stride=(1, 1), padding=(3, 3), dilation=(3, 3), groups=29)
    )
    (c2_2): BSConvU(
      (pw): Conv2d(29, 58, kernel_size=(1, 1), stride=(1, 1), bias=False)
      (dw): Conv2d(58, 58, kernel_size=(3, 3), stride=(1, 1), padding=(1, 1), groups=58)
    )
    (c3_1): BSConvU(
      (pw): Conv2d(58, 29, kernel_size=(1, 1), stride=(1, 1), bias=False)
      (dw): Conv2d(29, 29, kernel_size=(3, 3), stride=(1, 1), padding=(5, 5), dilation=(5, 5), groups=29)
    )
    (c3_2): BSConvU(
      (pw): Conv2d(29, 58, kernel_size=(1, 1), stride=(1, 1), bias=False)
      (dw): Conv2d(58, 58, kernel_size=(3, 3), stride=(1, 1), padding=(1, 1), groups=58)
    )
    (c3): BSConvU(
      (pw): Conv2d(58, 29, kernel_size=(1, 1), stride=(1, 1), bias=False)
      (dw): Conv2d(29, 29, kernel_size=(3, 3), stride=(1, 1), padding=(1, 1), groups=29)
    )
    (d1): Conv2d(58, 29, kernel_size=(1, 1), stride=(1, 1), bias=False)
    (d2): Conv2d(87, 29, kernel_size=(1, 1), stride=(1, 1), bias=False)
    (d3): Conv2d(87, 29, kernel_size=(1, 1), stride=(1, 1), bias=False)
    (act): GELU(approximate='none')
    (c5): Conv2d(116, 58, kernel_size=(1, 1), stride=(1, 1))
    (esa): ESA(
      (conv1): Conv2d(58, 14, kernel_size=(1, 1), stride=(1, 1))
      (conv_f): Conv2d(14, 14, kernel_size=(1, 1), stride=(1, 1))
      (maxPooling): MaxPool2d(kernel_size=7, stride=3, padding=0, dilation=1, ceil_mode=False)
      (conv_max): BSConvU(
        (pw): Conv2d(14, 14, kernel_size=(1, 1), stride=(1, 1), bias=False)
        (dw): Conv2d(14, 14, kernel_size=(3, 3), stride=(1, 1), padding=(1, 1), groups=14)
      )
      (conv2): BSConvU(
        (pw): Conv2d(14, 14, kernel_size=(1, 1), stride=(1, 1), bias=False)
        (dw): Conv2d(14, 14, kernel_size=(3, 3), stride=(2, 2), groups=14)
      )
      (conv3): BSConvU(
        (pw): Conv2d(14, 14, kernel_size=(1, 1), stride=(1, 1), bias=False)
        (dw): Conv2d(14, 14, kernel_size=(3, 3), stride=(1, 1), padding=(1, 1), groups=14)
      )
      (conv3_): BSConvU(
        (pw): Conv2d(14, 14, kernel_size=(1, 1), stride=(1, 1), bias=False)
        (dw): Conv2d(14, 14, kernel_size=(3, 3), stride=(1, 1), padding=(1, 1), groups=14)
      )
      (conv4): Conv2d(14, 58, kernel_size=(1, 1), stride=(1, 1))
      (sigmoid): Sigmoid()
      (GELU): GELU(approximate='none')
    )
    (cca): CCALayer(
      (avg_pool): AdaptiveAvgPool2d(output_size=1)
      (conv_du): Sequential(
        (0): Conv2d(58, 3, kernel_size=(1, 1), stride=(1, 1))
        (1): ReLU(inplace=True)
        (2): Conv2d(3, 58, kernel_size=(1, 1), stride=(1, 1))
        (3): Sigmoid()
      )
    )
  )
  (B4): B9(
    (c1_1): BSConvU(
      (pw): Conv2d(58, 29, kernel_size=(1, 1), stride=(1, 1), bias=False)
      (dw): Conv2d(29, 29, kernel_size=(3, 3), stride=(1, 1), padding=(1, 1), groups=29)
    )
    (c1_2): BSConvU(
      (pw): Conv2d(29, 58, kernel_size=(1, 1), stride=(1, 1), bias=False)
      (dw): Conv2d(58, 58, kernel_size=(3, 3), stride=(1, 1), padding=(1, 1), groups=58)
    )
    (c2_1): BSConvU(
      (pw): Conv2d(58, 29, kernel_size=(1, 1), stride=(1, 1), bias=False)
      (dw): Conv2d(29, 29, kernel_size=(3, 3), stride=(1, 1), padding=(3, 3), dilation=(3, 3), groups=29)
    )
    (c2_2): BSConvU(
      (pw): Conv2d(29, 58, kernel_size=(1, 1), stride=(1, 1), bias=False)
      (dw): Conv2d(58, 58, kernel_size=(3, 3), stride=(1, 1), padding=(1, 1), groups=58)
    )
    (c3_1): BSConvU(
      (pw): Conv2d(58, 29, kernel_size=(1, 1), stride=(1, 1), bias=False)
      (dw): Conv2d(29, 29, kernel_size=(3, 3), stride=(1, 1), padding=(5, 5), dilation=(5, 5), groups=29)
    )
    (c3_2): BSConvU(
      (pw): Conv2d(29, 58, kernel_size=(1, 1), stride=(1, 1), bias=False)
      (dw): Conv2d(58, 58, kernel_size=(3, 3), stride=(1, 1), padding=(1, 1), groups=58)
    )
    (c3): BSConvU(
      (pw): Conv2d(58, 29, kernel_size=(1, 1), stride=(1, 1), bias=False)
      (dw): Conv2d(29, 29, kernel_size=(3, 3), stride=(1, 1), padding=(1, 1), groups=29)
    )
    (d1): Conv2d(58, 29, kernel_size=(1, 1), stride=(1, 1), bias=False)
    (d2): Conv2d(87, 29, kernel_size=(1, 1), stride=(1, 1), bias=False)
    (d3): Conv2d(87, 29, kernel_size=(1, 1), stride=(1, 1), bias=False)
    (act): GELU(approximate='none')
    (c5): Conv2d(116, 58, kernel_size=(1, 1), stride=(1, 1))
    (esa): ESA(
      (conv1): Conv2d(58, 14, kernel_size=(1, 1), stride=(1, 1))
      (conv_f): Conv2d(14, 14, kernel_size=(1, 1), stride=(1, 1))
      (maxPooling): MaxPool2d(kernel_size=7, stride=3, padding=0, dilation=1, ceil_mode=False)
      (conv_max): BSConvU(
        (pw): Conv2d(14, 14, kernel_size=(1, 1), stride=(1, 1), bias=False)
        (dw): Conv2d(14, 14, kernel_size=(3, 3), stride=(1, 1), padding=(1, 1), groups=14)
      )
      (conv2): BSConvU(
        (pw): Conv2d(14, 14, kernel_size=(1, 1), stride=(1, 1), bias=False)
        (dw): Conv2d(14, 14, kernel_size=(3, 3), stride=(2, 2), groups=14)
      )
      (conv3): BSConvU(
        (pw): Conv2d(14, 14, kernel_size=(1, 1), stride=(1, 1), bias=False)
        (dw): Conv2d(14, 14, kernel_size=(3, 3), stride=(1, 1), padding=(1, 1), groups=14)
      )
      (conv3_): BSConvU(
        (pw): Conv2d(14, 14, kernel_size=(1, 1), stride=(1, 1), bias=False)
        (dw): Conv2d(14, 14, kernel_size=(3, 3), stride=(1, 1), padding=(1, 1), groups=14)
      )
      (conv4): Conv2d(14, 58, kernel_size=(1, 1), stride=(1, 1))
      (sigmoid): Sigmoid()
      (GELU): GELU(approximate='none')
    )
    (cca): CCALayer(
      (avg_pool): AdaptiveAvgPool2d(output_size=1)
      (conv_du): Sequential(
        (0): Conv2d(58, 3, kernel_size=(1, 1), stride=(1, 1))
        (1): ReLU(inplace=True)
        (2): Conv2d(3, 58, kernel_size=(1, 1), stride=(1, 1))
        (3): Sigmoid()
      )
    )
  )
  (B5): B9(
    (c1_1): BSConvU(
      (pw): Conv2d(58, 29, kernel_size=(1, 1), stride=(1, 1), bias=False)
      (dw): Conv2d(29, 29, kernel_size=(3, 3), stride=(1, 1), padding=(1, 1), groups=29)
    )
    (c1_2): BSConvU(
      (pw): Conv2d(29, 58, kernel_size=(1, 1), stride=(1, 1), bias=False)
      (dw): Conv2d(58, 58, kernel_size=(3, 3), stride=(1, 1), padding=(1, 1), groups=58)
    )
    (c2_1): BSConvU(
      (pw): Conv2d(58, 29, kernel_size=(1, 1), stride=(1, 1), bias=False)
      (dw): Conv2d(29, 29, kernel_size=(3, 3), stride=(1, 1), padding=(3, 3), dilation=(3, 3), groups=29)
    )
    (c2_2): BSConvU(
      (pw): Conv2d(29, 58, kernel_size=(1, 1), stride=(1, 1), bias=False)
      (dw): Conv2d(58, 58, kernel_size=(3, 3), stride=(1, 1), padding=(1, 1), groups=58)
    )
    (c3_1): BSConvU(
      (pw): Conv2d(58, 29, kernel_size=(1, 1), stride=(1, 1), bias=False)
      (dw): Conv2d(29, 29, kernel_size=(3, 3), stride=(1, 1), padding=(5, 5), dilation=(5, 5), groups=29)
    )
    (c3_2): BSConvU(
      (pw): Conv2d(29, 58, kernel_size=(1, 1), stride=(1, 1), bias=False)
      (dw): Conv2d(58, 58, kernel_size=(3, 3), stride=(1, 1), padding=(1, 1), groups=58)
    )
    (c3): BSConvU(
      (pw): Conv2d(58, 29, kernel_size=(1, 1), stride=(1, 1), bias=False)
      (dw): Conv2d(29, 29, kernel_size=(3, 3), stride=(1, 1), padding=(1, 1), groups=29)
    )
    (d1): Conv2d(58, 29, kernel_size=(1, 1), stride=(1, 1), bias=False)
    (d2): Conv2d(87, 29, kernel_size=(1, 1), stride=(1, 1), bias=False)
    (d3): Conv2d(87, 29, kernel_size=(1, 1), stride=(1, 1), bias=False)
    (act): GELU(approximate='none')
    (c5): Conv2d(116, 58, kernel_size=(1, 1), stride=(1, 1))
    (esa): ESA(
      (conv1): Conv2d(58, 14, kernel_size=(1, 1), stride=(1, 1))
      (conv_f): Conv2d(14, 14, kernel_size=(1, 1), stride=(1, 1))
      (maxPooling): MaxPool2d(kernel_size=7, stride=3, padding=0, dilation=1, ceil_mode=False)
      (conv_max): BSConvU(
        (pw): Conv2d(14, 14, kernel_size=(1, 1), stride=(1, 1), bias=False)
        (dw): Conv2d(14, 14, kernel_size=(3, 3), stride=(1, 1), padding=(1, 1), groups=14)
      )
      (conv2): BSConvU(
        (pw): Conv2d(14, 14, kernel_size=(1, 1), stride=(1, 1), bias=False)
        (dw): Conv2d(14, 14, kernel_size=(3, 3), stride=(2, 2), groups=14)
      )
      (conv3): BSConvU(
        (pw): Conv2d(14, 14, kernel_size=(1, 1), stride=(1, 1), bias=False)
        (dw): Conv2d(14, 14, kernel_size=(3, 3), stride=(1, 1), padding=(1, 1), groups=14)
      )
      (conv3_): BSConvU(
        (pw): Conv2d(14, 14, kernel_size=(1, 1), stride=(1, 1), bias=False)
        (dw): Conv2d(14, 14, kernel_size=(3, 3), stride=(1, 1), padding=(1, 1), groups=14)
      )
      (conv4): Conv2d(14, 58, kernel_size=(1, 1), stride=(1, 1))
      (sigmoid): Sigmoid()
      (GELU): GELU(approximate='none')
    )
    (cca): CCALayer(
      (avg_pool): AdaptiveAvgPool2d(output_size=1)
      (conv_du): Sequential(
        (0): Conv2d(58, 3, kernel_size=(1, 1), stride=(1, 1))
        (1): ReLU(inplace=True)
        (2): Conv2d(3, 58, kernel_size=(1, 1), stride=(1, 1))
        (3): Sigmoid()
      )
    )
  )
  (B6): B9(
    (c1_1): BSConvU(
      (pw): Conv2d(58, 29, kernel_size=(1, 1), stride=(1, 1), bias=False)
      (dw): Conv2d(29, 29, kernel_size=(3, 3), stride=(1, 1), padding=(1, 1), groups=29)
    )
    (c1_2): BSConvU(
      (pw): Conv2d(29, 58, kernel_size=(1, 1), stride=(1, 1), bias=False)
      (dw): Conv2d(58, 58, kernel_size=(3, 3), stride=(1, 1), padding=(1, 1), groups=58)
    )
    (c2_1): BSConvU(
      (pw): Conv2d(58, 29, kernel_size=(1, 1), stride=(1, 1), bias=False)
      (dw): Conv2d(29, 29, kernel_size=(3, 3), stride=(1, 1), padding=(3, 3), dilation=(3, 3), groups=29)
    )
    (c2_2): BSConvU(
      (pw): Conv2d(29, 58, kernel_size=(1, 1), stride=(1, 1), bias=False)
      (dw): Conv2d(58, 58, kernel_size=(3, 3), stride=(1, 1), padding=(1, 1), groups=58)
    )
    (c3_1): BSConvU(
      (pw): Conv2d(58, 29, kernel_size=(1, 1), stride=(1, 1), bias=False)
      (dw): Conv2d(29, 29, kernel_size=(3, 3), stride=(1, 1), padding=(5, 5), dilation=(5, 5), groups=29)
    )
    (c3_2): BSConvU(
      (pw): Conv2d(29, 58, kernel_size=(1, 1), stride=(1, 1), bias=False)
      (dw): Conv2d(58, 58, kernel_size=(3, 3), stride=(1, 1), padding=(1, 1), groups=58)
    )
    (c3): BSConvU(
      (pw): Conv2d(58, 29, kernel_size=(1, 1), stride=(1, 1), bias=False)
      (dw): Conv2d(29, 29, kernel_size=(3, 3), stride=(1, 1), padding=(1, 1), groups=29)
    )
    (d1): Conv2d(58, 29, kernel_size=(1, 1), stride=(1, 1), bias=False)
    (d2): Conv2d(87, 29, kernel_size=(1, 1), stride=(1, 1), bias=False)
    (d3): Conv2d(87, 29, kernel_size=(1, 1), stride=(1, 1), bias=False)
    (act): GELU(approximate='none')
    (c5): Conv2d(116, 58, kernel_size=(1, 1), stride=(1, 1))
    (esa): ESA(
      (conv1): Conv2d(58, 14, kernel_size=(1, 1), stride=(1, 1))
      (conv_f): Conv2d(14, 14, kernel_size=(1, 1), stride=(1, 1))
      (maxPooling): MaxPool2d(kernel_size=7, stride=3, padding=0, dilation=1, ceil_mode=False)
      (conv_max): BSConvU(
        (pw): Conv2d(14, 14, kernel_size=(1, 1), stride=(1, 1), bias=False)
        (dw): Conv2d(14, 14, kernel_size=(3, 3), stride=(1, 1), padding=(1, 1), groups=14)
      )
      (conv2): BSConvU(
        (pw): Conv2d(14, 14, kernel_size=(1, 1), stride=(1, 1), bias=False)
        (dw): Conv2d(14, 14, kernel_size=(3, 3), stride=(2, 2), groups=14)
      )
      (conv3): BSConvU(
        (pw): Conv2d(14, 14, kernel_size=(1, 1), stride=(1, 1), bias=False)
        (dw): Conv2d(14, 14, kernel_size=(3, 3), stride=(1, 1), padding=(1, 1), groups=14)
      )
      (conv3_): BSConvU(
        (pw): Conv2d(14, 14, kernel_size=(1, 1), stride=(1, 1), bias=False)
        (dw): Conv2d(14, 14, kernel_size=(3, 3), stride=(1, 1), padding=(1, 1), groups=14)
      )
      (conv4): Conv2d(14, 58, kernel_size=(1, 1), stride=(1, 1))
      (sigmoid): Sigmoid()
      (GELU): GELU(approximate='none')
    )
    (cca): CCALayer(
      (avg_pool): AdaptiveAvgPool2d(output_size=1)
      (conv_du): Sequential(
        (0): Conv2d(58, 3, kernel_size=(1, 1), stride=(1, 1))
        (1): ReLU(inplace=True)
        (2): Conv2d(3, 58, kernel_size=(1, 1), stride=(1, 1))
        (3): Sigmoid()
      )
    )
  )
  (B7): B9(
    (c1_1): BSConvU(
      (pw): Conv2d(58, 29, kernel_size=(1, 1), stride=(1, 1), bias=False)
      (dw): Conv2d(29, 29, kernel_size=(3, 3), stride=(1, 1), padding=(1, 1), groups=29)
    )
    (c1_2): BSConvU(
      (pw): Conv2d(29, 58, kernel_size=(1, 1), stride=(1, 1), bias=False)
      (dw): Conv2d(58, 58, kernel_size=(3, 3), stride=(1, 1), padding=(1, 1), groups=58)
    )
    (c2_1): BSConvU(
      (pw): Conv2d(58, 29, kernel_size=(1, 1), stride=(1, 1), bias=False)
      (dw): Conv2d(29, 29, kernel_size=(3, 3), stride=(1, 1), padding=(3, 3), dilation=(3, 3), groups=29)
    )
    (c2_2): BSConvU(
      (pw): Conv2d(29, 58, kernel_size=(1, 1), stride=(1, 1), bias=False)
      (dw): Conv2d(58, 58, kernel_size=(3, 3), stride=(1, 1), padding=(1, 1), groups=58)
    )
    (c3_1): BSConvU(
      (pw): Conv2d(58, 29, kernel_size=(1, 1), stride=(1, 1), bias=False)
      (dw): Conv2d(29, 29, kernel_size=(3, 3), stride=(1, 1), padding=(5, 5), dilation=(5, 5), groups=29)
    )
    (c3_2): BSConvU(
      (pw): Conv2d(29, 58, kernel_size=(1, 1), stride=(1, 1), bias=False)
      (dw): Conv2d(58, 58, kernel_size=(3, 3), stride=(1, 1), padding=(1, 1), groups=58)
    )
    (c3): BSConvU(
      (pw): Conv2d(58, 29, kernel_size=(1, 1), stride=(1, 1), bias=False)
      (dw): Conv2d(29, 29, kernel_size=(3, 3), stride=(1, 1), padding=(1, 1), groups=29)
    )
    (d1): Conv2d(58, 29, kernel_size=(1, 1), stride=(1, 1), bias=False)
    (d2): Conv2d(87, 29, kernel_size=(1, 1), stride=(1, 1), bias=False)
    (d3): Conv2d(87, 29, kernel_size=(1, 1), stride=(1, 1), bias=False)
    (act): GELU(approximate='none')
    (c5): Conv2d(116, 58, kernel_size=(1, 1), stride=(1, 1))
    (esa): ESA(
      (conv1): Conv2d(58, 14, kernel_size=(1, 1), stride=(1, 1))
      (conv_f): Conv2d(14, 14, kernel_size=(1, 1), stride=(1, 1))
      (maxPooling): MaxPool2d(kernel_size=7, stride=3, padding=0, dilation=1, ceil_mode=False)
      (conv_max): BSConvU(
        (pw): Conv2d(14, 14, kernel_size=(1, 1), stride=(1, 1), bias=False)
        (dw): Conv2d(14, 14, kernel_size=(3, 3), stride=(1, 1), padding=(1, 1), groups=14)
      )
      (conv2): BSConvU(
        (pw): Conv2d(14, 14, kernel_size=(1, 1), stride=(1, 1), bias=False)
        (dw): Conv2d(14, 14, kernel_size=(3, 3), stride=(2, 2), groups=14)
      )
      (conv3): BSConvU(
        (pw): Conv2d(14, 14, kernel_size=(1, 1), stride=(1, 1), bias=False)
        (dw): Conv2d(14, 14, kernel_size=(3, 3), stride=(1, 1), padding=(1, 1), groups=14)
      )
      (conv3_): BSConvU(
        (pw): Conv2d(14, 14, kernel_size=(1, 1), stride=(1, 1), bias=False)
        (dw): Conv2d(14, 14, kernel_size=(3, 3), stride=(1, 1), padding=(1, 1), groups=14)
      )
      (conv4): Conv2d(14, 58, kernel_size=(1, 1), stride=(1, 1))
      (sigmoid): Sigmoid()
      (GELU): GELU(approximate='none')
    )
    (cca): CCALayer(
      (avg_pool): AdaptiveAvgPool2d(output_size=1)
      (conv_du): Sequential(
        (0): Conv2d(58, 3, kernel_size=(1, 1), stride=(1, 1))
        (1): ReLU(inplace=True)
        (2): Conv2d(3, 58, kernel_size=(1, 1), stride=(1, 1))
        (3): Sigmoid()
      )
    )
  )
  (B8): B9(
    (c1_1): BSConvU(
      (pw): Conv2d(58, 29, kernel_size=(1, 1), stride=(1, 1), bias=False)
      (dw): Conv2d(29, 29, kernel_size=(3, 3), stride=(1, 1), padding=(1, 1), groups=29)
    )
    (c1_2): BSConvU(
      (pw): Conv2d(29, 58, kernel_size=(1, 1), stride=(1, 1), bias=False)
      (dw): Conv2d(58, 58, kernel_size=(3, 3), stride=(1, 1), padding=(1, 1), groups=58)
    )
    (c2_1): BSConvU(
      (pw): Conv2d(58, 29, kernel_size=(1, 1), stride=(1, 1), bias=False)
      (dw): Conv2d(29, 29, kernel_size=(3, 3), stride=(1, 1), padding=(3, 3), dilation=(3, 3), groups=29)
    )
    (c2_2): BSConvU(
      (pw): Conv2d(29, 58, kernel_size=(1, 1), stride=(1, 1), bias=False)
      (dw): Conv2d(58, 58, kernel_size=(3, 3), stride=(1, 1), padding=(1, 1), groups=58)
    )
    (c3_1): BSConvU(
      (pw): Conv2d(58, 29, kernel_size=(1, 1), stride=(1, 1), bias=False)
      (dw): Conv2d(29, 29, kernel_size=(3, 3), stride=(1, 1), padding=(5, 5), dilation=(5, 5), groups=29)
    )
    (c3_2): BSConvU(
      (pw): Conv2d(29, 58, kernel_size=(1, 1), stride=(1, 1), bias=False)
      (dw): Conv2d(58, 58, kernel_size=(3, 3), stride=(1, 1), padding=(1, 1), groups=58)
    )
    (c3): BSConvU(
      (pw): Conv2d(58, 29, kernel_size=(1, 1), stride=(1, 1), bias=False)
      (dw): Conv2d(29, 29, kernel_size=(3, 3), stride=(1, 1), padding=(1, 1), groups=29)
    )
    (d1): Conv2d(58, 29, kernel_size=(1, 1), stride=(1, 1), bias=False)
    (d2): Conv2d(87, 29, kernel_size=(1, 1), stride=(1, 1), bias=False)
    (d3): Conv2d(87, 29, kernel_size=(1, 1), stride=(1, 1), bias=False)
    (act): GELU(approximate='none')
    (c5): Conv2d(116, 58, kernel_size=(1, 1), stride=(1, 1))
    (esa): ESA(
      (conv1): Conv2d(58, 14, kernel_size=(1, 1), stride=(1, 1))
      (conv_f): Conv2d(14, 14, kernel_size=(1, 1), stride=(1, 1))
      (maxPooling): MaxPool2d(kernel_size=7, stride=3, padding=0, dilation=1, ceil_mode=False)
      (conv_max): BSConvU(
        (pw): Conv2d(14, 14, kernel_size=(1, 1), stride=(1, 1), bias=False)
        (dw): Conv2d(14, 14, kernel_size=(3, 3), stride=(1, 1), padding=(1, 1), groups=14)
      )
      (conv2): BSConvU(
        (pw): Conv2d(14, 14, kernel_size=(1, 1), stride=(1, 1), bias=False)
        (dw): Conv2d(14, 14, kernel_size=(3, 3), stride=(2, 2), groups=14)
      )
      (conv3): BSConvU(
        (pw): Conv2d(14, 14, kernel_size=(1, 1), stride=(1, 1), bias=False)
        (dw): Conv2d(14, 14, kernel_size=(3, 3), stride=(1, 1), padding=(1, 1), groups=14)
      )
      (conv3_): BSConvU(
        (pw): Conv2d(14, 14, kernel_size=(1, 1), stride=(1, 1), bias=False)
        (dw): Conv2d(14, 14, kernel_size=(3, 3), stride=(1, 1), padding=(1, 1), groups=14)
      )
      (conv4): Conv2d(14, 58, kernel_size=(1, 1), stride=(1, 1))
      (sigmoid): Sigmoid()
      (GELU): GELU(approximate='none')
    )
    (cca): CCALayer(
      (avg_pool): AdaptiveAvgPool2d(output_size=1)
      (conv_du): Sequential(
        (0): Conv2d(58, 3, kernel_size=(1, 1), stride=(1, 1))
        (1): ReLU(inplace=True)
        (2): Conv2d(3, 58, kernel_size=(1, 1), stride=(1, 1))
        (3): Sigmoid()
      )
    )
  )
  (c1): Conv2d(464, 58, kernel_size=(1, 1), stride=(1, 1), padding=(1, 1))
  (GELU): GELU(approximate='none')
  (c2): BSConvU(
    (pw): Conv2d(58, 58, kernel_size=(1, 1), stride=(1, 1), bias=False)
    (dw): Conv2d(58, 58, kernel_size=(3, 3), stride=(1, 1), groups=58)
  )
  (upsampler): Sequential(
    (0): Conv2d(58, 12, kernel_size=(3, 3), stride=(1, 1), padding=(1, 1))
    (1): PixelShuffle(upscale_factor=2)
  )
)
[Epoch 1]	Learning rate: 1.00e-3
[6400/63180]	[L1: 0.0852]	8.2+1.9s
[12800/63180]	[L1: 0.0591]	6.5+1.0s
[19200/63180]	[L1: 0.0487]	6.3+1.1s
[25600/63180]	[L1: 0.0430]	6.4+1.1s
[32000/63180]	[L1: 0.0393]	6.4+1.1s
[38400/63180]	[L1: 0.0367]	6.4+1.1s
[44800/63180]	[L1: 0.0349]	6.4+1.1s
[51200/63180]	[L1: 0.0335]	6.4+1.1s
…
