DEDRN(
  (fea_conv): BSConvU(
    (pw): Conv2d(12, 58, kernel_size=(1, 1), stride=(1, 1), bias=False)
    (dw): Conv2d(58, 58, kernel_size=(3, 3), stride=(1, 1), padding=(1, 1), groups=58)
  )
  (B1): B9(
    (c1_1): BSConvU(
      (pw): Conv2d(58, 29, kernel_size=(1, 1), stride=(1, 1), bias=False)
      (dw): Conv2d(29, 29, kernel_size=(3, 3), stride=(1, 1), padding=(1, 1), groups=29)
    )
    (c1_2): BSConvU(
      (pw): Conv2d(29, 58, kernel_size=(1, 1), stride=(1, 1), bias=False)
      (dw): Conv2d(58, 58, kernel_size=(3, 3), stride=(1, 1), padding=(1, 1), groups=58)
    )
    (c2_1): BSConvU(
      (pw): Conv2d(58, 29, kernel_size=(1, 1), stride=(1, 1), bias=False)
      (dw): Conv2d(29, 29, kernel_size=(3, 3), stride=(1, 1), padding=(3, 3), dilation=(3, 3), groups=29)
    )
    (c2_2): BSConvU(
      (pw): Conv2d(29, 58, kernel_size=(1, 1), stride=(1, 1), bias=False)
      (dw): Conv2d(58, 58, kernel_size=(3, 3), stride=(1, 1), padding=(1, 1), groups=58)
    )
    (c3_1): BSConvU(
      (pw): Conv2d(58, 29, kernel_size=(1, 1), stride=(1, 1), bias=False)
      (dw): Conv2d(29, 29, kernel_size=(3, 3), stride=(1, 1), padding=(5, 5), dilation=(5, 5), groups=29)
    )
    (c3_2): BSConvU(
      (pw): Conv2d(29, 58, kernel_size=(1, 1), stride=(1, 1), bias=False)
      (dw): Conv2d(58, 58, kernel_size=(3, 3), stride=(1, 1), padding=(1, 1), groups=58)
    )
    (c3): BSConvU(
      (pw): Conv2d(58, 29, kernel_size=(1, 1), stride=(1, 1), bias=False)
      (dw): Conv2d(29, 29, kernel_size=(3, 3), stride=(1, 1), padding=(1, 1), groups=29)
    )
    (d1): Conv2d(58, 29, kernel_size=(1, 1), stride=(1, 1), bias=False)
    (d2): Conv2d(87, 29, kernel_size=(1, 1), stride=(1, 1), bias=False)
    (d3): Conv2d(87, 29, kernel_size=(1, 1), stride=(1, 1), bias=False)
    (act): GELU(approximate='none')
    (c5): Conv2d(116, 58, kernel_size=(1, 1), stride=(1, 1))
    (esa): ESA(
      (conv1): Conv2d(58, 14, kernel_size=(1, 1), stride=(1, 1))
      (conv_f): Conv2d(14, 14, kernel_size=(1, 1), stride=(1, 1))
      (maxPooling): MaxPool2d(kernel_size=7, stride=3, padding=0, dilation=1, ceil_mode=False)
      (conv_max): BSConvU(
        (pw): Conv2d(14, 14, kernel_size=(1, 1), stride=(1, 1), bias=False)
        (dw): Conv2d(14, 14, kernel_size=(3, 3), stride=(1, 1), padding=(1, 1), groups=14)
      )
      (conv2): BSConvU(
        (pw): Conv2d(14, 14, kernel_size=(1, 1), stride=(1, 1), bias=False)
        (dw): Conv2d(14, 14, kernel_size=(3, 3), stride=(2, 2), groups=14)
      )
      (conv3): BSConvU(
        (pw): Conv2d(14, 14, kernel_size=(1, 1), stride=(1, 1), bias=False)
        (dw): Conv2d(14, 14, kernel_size=(3, 3), stride=(1, 1), padding=(1, 1), groups=14)
      )
      (conv3_): BSConvU(
        (pw): Conv2d(14, 14, kernel_size=(1, 1), stride=(1, 1), bias=False)
        (dw): Conv2d(14, 14, kernel_size=(3, 3), stride=(1, 1), padding=(1, 1), groups=14)
      )
      (conv4): Conv2d(14, 58, kernel_size=(1, 1), stride=(1, 1))
      (sigmoid): Sigmoid()
      (GELU): GELU(approximate='none')
    )
    (cca): CCALayer(
      (avg_pool): AdaptiveAvgPool2d(output_size=1)
      (conv_du): Sequential(
        (0): Conv2d(58, 3, kernel_size=(1, 1), stride=(1, 1))
        (1): ReLU(inplace=True)
        (2): Conv2d(3, 58, kernel_size=(1, 1), stride=(1, 1))
        (3): Sigmoid()
      )
    )
  )
  (B2): B9(
    (c1_1): BSConvU(
      (pw): Conv2d(58, 29, kernel_size=(1, 1), stride=(1, 1), bias=False)
      (dw): Conv2d(29, 29, kernel_size=(3, 3), stride=(1, 1), padding=(1, 1), groups=29)
    )
    (c1_2): BSConvU(
      (pw): Conv2d(29, 58, kernel_size=(1, 1), stride=(1, 1), bias=False)
      (dw): Conv2d(58, 58, kernel_size=(3, 3), stride=(1, 1), padding=(1, 1), groups=58)
    )
    (c2_1): BSConvU(
      (pw): Conv2d(58, 29, kernel_size=(1, 1), stride=(1, 1), bias=False)
      (dw): Conv2d(29, 29, kernel_size=(3, 3), stride=(1, 1), padding=(3, 3), dilation=(3, 3), groups=29)
    )
    (c2_2): BSConvU(
      (pw): Conv2d(29, 58, kernel_size=(1, 1), stride=(1, 1), bias=False)
      (dw): Conv2d(58, 58, kernel_size=(3, 3), stride=(1, 1), padding=(1, 1), groups=58)
    )
    (c3_1): BSConvU(
      (pw): Conv2d(58, 29, kernel_size=(1, 1), stride=(1, 1), bias=False)
      (dw): Conv2d(29, 29, kernel_size=(3, 3), stride=(1, 1), padding=(5, 5), dilation=(5, 5), groups=29)
    )
    (c3_2): BSConvU(
      (pw): Conv2d(29, 58, kernel_size=(1, 1), stride=(1, 1), bias=False)
      (dw): Conv2d(58, 58, kernel_size=(3, 3), stride=(1, 1), padding=(1, 1), groups=58)
    )
    (c3): BSConvU(
      (pw): Conv2d(58, 29, kernel_size=(1, 1), stride=(1, 1), bias=False)
      (dw): Conv2d(29, 29, kernel_size=(3, 3), stride=(1, 1), padding=(1, 1), groups=29)
    )
    (d1): Conv2d(58, 29, kernel_size=(1, 1), stride=(1, 1), bias=False)
    (d2): Conv2d(87, 29, kernel_size=(1, 1), stride=(1, 1), bias=False)
    (d3): Conv2d(87, 29, kernel_size=(1, 1), stride=(1, 1), bias=False)
    (act): GELU(approximate='none')
    (c5): Conv2d(116, 58, kernel_size=(1, 1), stride=(1, 1))
    (esa): ESA(
      (conv1): Conv2d(58, 14, kernel_size=(1, 1), stride=(1, 1))
      (conv_f): Conv2d(14, 14, kernel_size=(1, 1), stride=(1, 1))
      (maxPooling): MaxPool2d(kernel_size=7, stride=3, padding=0, dilation=1, ceil_mode=False)
      (conv_max): BSConvU(
        (pw): Conv2d(14, 14, kernel_size=(1, 1), stride=(1, 1), bias=False)
        (dw): Conv2d(14, 14, kernel_size=(3, 3), stride=(1, 1), padding=(1, 1), groups=14)
      )
      (conv2): BSConvU(
        (pw): Conv2d(14, 14, kernel_size=(1, 1), stride=(1, 1), bias=False)
        (dw): Conv2d(14, 14, kernel_size=(3, 3), stride=(2, 2), groups=14)
      )
      (conv3): BSConvU(
        (pw): Conv2d(14, 14, kernel_size=(1, 1), stride=(1, 1), bias=False)
        (dw): Conv2d(14, 14, kernel_size=(3, 3), stride=(1, 1), padding=(1, 1), groups=14)
      )
      (conv3_): BSConvU(
        (pw): Conv2d(14, 14, kernel_size=(1, 1), stride=(1, 1), bias=False)
        (dw): Conv2d(14, 14, kernel_size=(3, 3), stride=(1, 1), padding=(1, 1), groups=14)
      )
      (conv4): Conv2d(14, 58, kernel_size=(1, 1), stride=(1, 1))
      (sigmoid): Sigmoid()
      (GELU): GELU(approximate='none')
    )
    (cca): CCALayer(
      (avg_pool): AdaptiveAvgPool2d(output_size=1)
      (conv_du): Sequential(
        (0): Conv2d(58, 3, kernel_size=(1, 1), stride=(1, 1))
        (1): ReLU(inplace=True)
        (2): Conv2d(3, 58, kernel_size=(1, 1), stride=(1, 1))
        (3): Sigmoid()
      )
    )
  )
  (B3): B9(
    (c1_1): BSConvU(
      (pw): Conv2d(58, 29, kernel_size=(1, 1), stride=(1, 1), bias=False)
      (dw): Conv2d(29, 29, kernel_size=(3, 3), stride=(1, 1), padding=(1, 1), groups=29)
    )
    (c1_2): BSConvU(
      (pw): Conv2d(29, 58, kernel_size=(1, 1), stride=(1, 1), bias=False)
      (dw): Conv2d(58, 58, kernel_size=(3, 3), stride=(1, 1), padding=(1, 1), groups=58)
    )
    (c2_1): BSConvU(
      (pw): Conv2d(58, 29, kernel_size=(1, 1), stride=(1, 1), bias=False)
      (dw): Conv2d(29, 29, kernel_size=(3, 3), stride=(1, 1), padding=(3, 3), dilation=(3, 3), groups=29)
    )
    (c2_2): BSConvU(
      (pw): Conv2d(29, 58, kernel_size=(1, 1), stride=(1, 1), bias=False)
      (dw): Conv2d(58, 58, kernel_size=(3, 3), stride=(1, 1), padding=(1, 1), groups=58)
    )
    (c3_1): BSConvU(
      (pw): Conv2d(58, 29, kernel_size=(1, 1), stride=(1, 1), bias=False)
      (dw): Conv2d(29, 29, kernel_size=(3, 3), stride=(1, 1), padding=(5, 5), dilation=(5, 5), groups=29)
    )
    (c3_2): BSConvU(
      (pw): Conv2d(29, 58, kernel_size=(1, 1), stride=(1, 1), bias=False)
      (dw): Conv2d(58, 58, kernel_size=(3, 3), stride=(1, 1), padding=(1, 1), groups=58)
    )
    (c3): BSConvU(
      (pw): Conv2d(58, 29, kernel_size=(1, 1), stride=(1, 1), bias=False)
      (dw): Conv2d(29, 29, kernel_size=(3, 3), stride=(1, 1), padding=(1, 1), groups=29)
    )
    (d1): Conv2d(58, 29, kernel_size=(1, 1), stride=(1, 1), bias=False)
    (d2): Conv2d(87, 29, kernel_size=(1, 1), stride=(1, 1), bias=False)
    (d3): Conv2d(87, 29, kernel_size=(1, 1), stride=(1, 1), bias=False)
    (act): GELU(approximate='none')
    (c5): Conv2d(116, 58, kernel_size=(1, 1), stride=(1, 1))
    (esa): ESA(
      (conv1): Conv2d(58, 14, kernel_size=(1, 1), stride=(1, 1))
      (conv_f): Conv2d(14, 14, kernel_size=(1, 1), stride=(1, 1))
      (maxPooling): MaxPool2d(kernel_size=7, stride=3, padding=0, dilation=1, ceil_mode=False)
      (conv_max): BSConvU(
        (pw): Conv2d(14, 14, kernel_size=(1, 1), stride=(1, 1), bias=False)
        (dw): Conv2d(14, 14, kernel_size=(3, 3), stride=(1, 1), padding=(1, 1), groups=14)
      )
      (conv2): BSConvU(
        (pw): Conv2d(14, 14, kernel_size=(1, 1), stride=(1, 1), bias=False)
        (dw): Conv2d(14, 14, kernel_size=(3, 3), stride=(2, 2), groups=14)
      )
      (conv3): BSConvU(
        (pw): Conv2d(14, 14, kernel_size=(1, 1), stride=(1, 1), bias=False)
        (dw): Conv2d(14, 14, kernel_size=(3, 3), stride=(1, 1), padding=(1, 1), groups=14)
      )
      (conv3_): BSConvU(
        (pw): Conv2d(14, 14, kernel_size=(1, 1), stride=(1, 1), bias=False)
        (dw): Conv2d(14, 14, kernel_size=(3, 3), stride=(1, 1), padding=(1, 1), groups=14)
      )
      (conv4): Conv2d(14, 58, kernel_size=(1, 1), stride=(1, 1))
      (sigmoid): Sigmoid()
      (GELU): GELU(approximate='none')
    )
    (cca): CCALayer(
      (avg_pool): AdaptiveAvgPool2d(output_size=1)
      (conv_du): Sequential(
        (0): Conv2d(58, 3, kernel_size=(1, 1), stride=(1, 1))
        (1): ReLU(inplace=True)
        (2): Conv2d(3, 58, kernel_size=(1, 1), stride=(1, 1))
        (3): Sigmoid()
      )
    )
  )
  (B4): B9(
    (c1_1): BSConvU(
      (pw): Conv2d(58, 29, kernel_size=(1, 1), stride=(1, 1), bias=False)
      (dw): Conv2d(29, 29, kernel_size=(3, 3), stride=(1, 1), padding=(1, 1), groups=29)
    )
    (c1_2): BSConvU(
      (pw): Conv2d(29, 58, kernel_size=(1, 1), stride=(1, 1), bias=False)
      (dw): Conv2d(58, 58, kernel_size=(3, 3), stride=(1, 1), padding=(1, 1), groups=58)
    )
    (c2_1): BSConvU(
      (pw): Conv2d(58, 29, kernel_size=(1, 1), stride=(1, 1), bias=False)
      (dw): Conv2d(29, 29, kernel_size=(3, 3), stride=(1, 1), padding=(3, 3), dilation=(3, 3), groups=29)
    )
    (c2_2): BSConvU(
      (pw): Conv2d(29, 58, kernel_size=(1, 1), stride=(1, 1), bias=False)
      (dw): Conv2d(58, 58, kernel_size=(3, 3), stride=(1, 1), padding=(1, 1), groups=58)
    )
    (c3_1): BSConvU(
      (pw): Conv2d(58, 29, kernel_size=(1, 1), stride=(1, 1), bias=False)
      (dw): Conv2d(29, 29, kernel_size=(3, 3), stride=(1, 1), padding=(5, 5), dilation=(5, 5), groups=29)
    )
    (c3_2): BSConvU(
      (pw): Conv2d(29, 58, kernel_size=(1, 1), stride=(1, 1), bias=False)
      (dw): Conv2d(58, 58, kernel_size=(3, 3), stride=(1, 1), padding=(1, 1), groups=58)
    )
    (c3): BSConvU(
      (pw): Conv2d(58, 29, kernel_size=(1, 1), stride=(1, 1), bias=False)
      (dw): Conv2d(29, 29, kernel_size=(3, 3), stride=(1, 1), padding=(1, 1), groups=29)
    )
    (d1): Conv2d(58, 29, kernel_size=(1, 1), stride=(1, 1), bias=False)
    (d2): Conv2d(87, 29, kernel_size=(1, 1), stride=(1, 1), bias=False)
    (d3): Conv2d(87, 29, kernel_size=(1, 1), stride=(1, 1), bias=False)
    (act): GELU(approximate='none')
    (c5): Conv2d(116, 58, kernel_size=(1, 1), stride=(1, 1))
    (esa): ESA(
      (conv1): Conv2d(58, 14, kernel_size=(1, 1), stride=(1, 1))
      (conv_f): Conv2d(14, 14, kernel_size=(1, 1), stride=(1, 1))
      (maxPooling): MaxPool2d(kernel_size=7, stride=3, padding=0, dilation=1, ceil_mode=False)
      (conv_max): BSConvU(
        (pw): Conv2d(14, 14, kernel_size=(1, 1), stride=(1, 1), bias=False)
        (dw): Conv2d(14, 14, kernel_size=(3, 3), stride=(1, 1), padding=(1, 1), groups=14)
      )
      (conv2): BSConvU(
        (pw): Conv2d(14, 14, kernel_size=(1, 1), stride=(1, 1), bias=False)
        (dw): Conv2d(14, 14, kernel_size=(3, 3), stride=(2, 2), groups=14)
      )
      (conv3): BSConvU(
        (pw): Conv2d(14, 14, kernel_size=(1, 1), stride=(1, 1), bias=False)
        (dw): Conv2d(14, 14, kernel_size=(3, 3), stride=(1, 1), padding=(1, 1), groups=14)
      )
      (conv3_): BSConvU(
        (pw): Conv2d(14, 14, kernel_size=(1, 1), stride=(1, 1), bias=False)
        (dw): Conv2d(14, 14, kernel_size=(3, 3), stride=(1, 1), padding=(1, 1), groups=14)
      )
      (conv4): Conv2d(14, 58, kernel_size=(1, 1), stride=(1, 1))
      (sigmoid): Sigmoid()
      (GELU): GELU(approximate='none')
    )
    (cca): CCALayer(
      (avg_pool): AdaptiveAvgPool2d(output_size=1)
      (conv_du): Sequential(
        (0): Conv2d(58, 3, kernel_size=(1, 1), stride=(1, 1))
        (1): ReLU(inplace=True)
        (2): Conv2d(3, 58, kernel_size=(1, 1), stride=(1, 1))
        (3): Sigmoid()
      )
    )
  )
  (B5): B9(
    (c1_1): BSConvU(
      (pw): Conv2d(58, 29, kernel_size=(1, 1), stride=(1, 1), bias=False)
      (dw): Conv2d(29, 29, kernel_size=(3, 3), stride=(1, 1), padding=(1, 1), groups=29)
    )
    (c1_2): BSConvU(
      (pw): Conv2d(29, 58, kernel_size=(1, 1), stride=(1, 1), bias=False)
      (dw): Conv2d(58, 58, kernel_size=(3, 3), stride=(1, 1), padding=(1, 1), groups=58)
    )
    (c2_1): BSConvU(
      (pw): Conv2d(58, 29, kernel_size=(1, 1), stride=(1, 1), bias=False)
      (dw): Conv2d(29, 29, kernel_size=(3, 3), stride=(1, 1), padding=(3, 3), dilation=(3, 3), groups=29)
    )
    (c2_2): BSConvU(
      (pw): Conv2d(29, 58, kernel_size=(1, 1), stride=(1, 1), bias=False)
      (dw): Conv2d(58, 58, kernel_size=(3, 3), stride=(1, 1), padding=(1, 1), groups=58)
    )
    (c3_1): BSConvU(
      (pw): Conv2d(58, 29, kernel_size=(1, 1), stride=(1, 1), bias=False)
      (dw): Conv2d(29, 29, kernel_size=(3, 3), stride=(1, 1), padding=(5, 5), dilation=(5, 5), groups=29)
    )
    (c3_2): BSConvU(
      (pw): Conv2d(29, 58, kernel_size=(1, 1), stride=(1, 1), bias=False)
      (dw): Conv2d(58, 58, kernel_size=(3, 3), stride=(1, 1), padding=(1, 1), groups=58)
    )
    (c3): BSConvU(
      (pw): Conv2d(58, 29, kernel_size=(1, 1), stride=(1, 1), bias=False)
      (dw): Conv2d(29, 29, kernel_size=(3, 3), stride=(1, 1), padding=(1, 1), groups=29)
    )
    (d1): Conv2d(58, 29, kernel_size=(1, 1), stride=(1, 1), bias=False)
    (d2): Conv2d(87, 29, kernel_size=(1, 1), stride=(1, 1), bias=False)
    (d3): Conv2d(87, 29, kernel_size=(1, 1), stride=(1, 1), bias=False)
    (act): GELU(approximate='none')
    (c5): Conv2d(116, 58, kernel_size=(1, 1), stride=(1, 1))
    (esa): ESA(
      (conv1): Conv2d(58, 14, kernel_size=(1, 1), stride=(1, 1))
      (conv_f): Conv2d(14, 14, kernel_size=(1, 1), stride=(1, 1))
      (maxPooling): MaxPool2d(kernel_size=7, stride=3, padding=0, dilation=1, ceil_mode=False)
      (conv_max): BSConvU(
        (pw): Conv2d(14, 14, kernel_size=(1, 1), stride=(1, 1), bias=False)
        (dw): Conv2d(14, 14, kernel_size=(3, 3), stride=(1, 1), padding=(1, 1), groups=14)
      )
      (conv2): BSConvU(
        (pw): Conv2d(14, 14, kernel_size=(1, 1), stride=(1, 1), bias=False)
        (dw): Conv2d(14, 14, kernel_size=(3, 3), stride=(2, 2), groups=14)
      )
      (conv3): BSConvU(
        (pw): Conv2d(14, 14, kernel_size=(1, 1), stride=(1, 1), bias=False)
        (dw): Conv2d(14, 14, kernel_size=(3, 3), stride=(1, 1), padding=(1, 1), groups=14)
      )
      (conv3_): BSConvU(
        (pw): Conv2d(14, 14, kernel_size=(1, 1), stride=(1, 1), bias=False)
        (dw): Conv2d(14, 14, kernel_size=(3, 3), stride=(1, 1), padding=(1, 1), groups=14)
      )
      (conv4): Conv2d(14, 58, kernel_size=(1, 1), stride=(1, 1))
      (sigmoid): Sigmoid()
      (GELU): GELU(approximate='none')
    )
    (cca): CCALayer(
      (avg_pool): AdaptiveAvgPool2d(output_size=1)
      (conv_du): Sequential(
        (0): Conv2d(58, 3, kernel_size=(1, 1), stride=(1, 1))
        (1): ReLU(inplace=True)
        (2): Conv2d(3, 58, kernel_size=(1, 1), stride=(1, 1))
        (3): Sigmoid()
      )
    )
  )
  (B6): B9(
    (c1_1): BSConvU(
      (pw): Conv2d(58, 29, kernel_size=(1, 1), stride=(1, 1), bias=False)
      (dw): Conv2d(29, 29, kernel_size=(3, 3), stride=(1, 1), padding=(1, 1), groups=29)
    )
    (c1_2): BSConvU(
      (pw): Conv2d(29, 58, kernel_size=(1, 1), stride=(1, 1), bias=False)
      (dw): Conv2d(58, 58, kernel_size=(3, 3), stride=(1, 1), padding=(1, 1), groups=58)
    )
    (c2_1): BSConvU(
      (pw): Conv2d(58, 29, kernel_size=(1, 1), stride=(1, 1), bias=False)
      (dw): Conv2d(29, 29, kernel_size=(3, 3), stride=(1, 1), padding=(3, 3), dilation=(3, 3), groups=29)
    )
    (c2_2): BSConvU(
      (pw): Conv2d(29, 58, kernel_size=(1, 1), stride=(1, 1), bias=False)
      (dw): Conv2d(58, 58, kernel_size=(3, 3), stride=(1, 1), padding=(1, 1), groups=58)
    )
    (c3_1): BSConvU(
      (pw): Conv2d(58, 29, kernel_size=(1, 1), stride=(1, 1), bias=False)
      (dw): Conv2d(29, 29, kernel_size=(3, 3), stride=(1, 1), padding=(5, 5), dilation=(5, 5), groups=29)
    )
    (c3_2): BSConvU(
      (pw): Conv2d(29, 58, kernel_size=(1, 1), stride=(1, 1), bias=False)
      (dw): Conv2d(58, 58, kernel_size=(3, 3), stride=(1, 1), padding=(1, 1), groups=58)
    )
    (c3): BSConvU(
      (pw): Conv2d(58, 29, kernel_size=(1, 1), stride=(1, 1), bias=False)
      (dw): Conv2d(29, 29, kernel_size=(3, 3), stride=(1, 1), padding=(1, 1), groups=29)
    )
    (d1): Conv2d(58, 29, kernel_size=(1, 1), stride=(1, 1), bias=False)
    (d2): Conv2d(87, 29, kernel_size=(1, 1), stride=(1, 1), bias=False)
    (d3): Conv2d(87, 29, kernel_size=(1, 1), stride=(1, 1), bias=False)
    (act): GELU(approximate='none')
    (c5): Conv2d(116, 58, kernel_size=(1, 1), stride=(1, 1))
    (esa): ESA(
      (conv1): Conv2d(58, 14, kernel_size=(1, 1), stride=(1, 1))
      (conv_f): Conv2d(14, 14, kernel_size=(1, 1), stride=(1, 1))
      (maxPooling): MaxPool2d(kernel_size=7, stride=3, padding=0, dilation=1, ceil_mode=False)
      (conv_max): BSConvU(
        (pw): Conv2d(14, 14, kernel_size=(1, 1), stride=(1, 1), bias=False)
        (dw): Conv2d(14, 14, kernel_size=(3, 3), stride=(1, 1), padding=(1, 1), groups=14)
      )
      (conv2): BSConvU(
        (pw): Conv2d(14, 14, kernel_size=(1, 1), stride=(1, 1), bias=False)
        (dw): Conv2d(14, 14, kernel_size=(3, 3), stride=(2, 2), groups=14)
      )
      (conv3): BSConvU(
        (pw): Conv2d(14, 14, kernel_size=(1, 1), stride=(1, 1), bias=False)
        (dw): Conv2d(14, 14, kernel_size=(3, 3), stride=(1, 1), padding=(1, 1), groups=14)
      )
      (conv3_): BSConvU(
        (pw): Conv2d(14, 14, kernel_size=(1, 1), stride=(1, 1), bias=False)
        (dw): Conv2d(14, 14, kernel_size=(3, 3), stride=(1, 1), padding=(1, 1), groups=14)
      )
      (conv4): Conv2d(14, 58, kernel_size=(1, 1), stride=(1, 1))
      (sigmoid): Sigmoid()
      (GELU): GELU(approximate='none')
    )
    (cca): CCALayer(
      (avg_pool): AdaptiveAvgPool2d(output_size=1)
      (conv_du): Sequential(
        (0): Conv2d(58, 3, kernel_size=(1, 1), stride=(1, 1))
        (1): ReLU(inplace=True)
        (2): Conv2d(3, 58, kernel_size=(1, 1), stride=(1, 1))
        (3): Sigmoid()
      )
    )
  )
  (B7): B9(
    (c1_1): BSConvU(
      (pw): Conv2d(58, 29, kernel_size=(1, 1), stride=(1, 1), bias=False)
      (dw): Conv2d(29, 29, kernel_size=(3, 3), stride=(1, 1), padding=(1, 1), groups=29)
    )
    (c1_2): BSConvU(
      (pw): Conv2d(29, 58, kernel_size=(1, 1), stride=(1, 1), bias=False)
      (dw): Conv2d(58, 58, kernel_size=(3, 3), stride=(1, 1), padding=(1, 1), groups=58)
    )
    (c2_1): BSConvU(
      (pw): Conv2d(58, 29, kernel_size=(1, 1), stride=(1, 1), bias=False)
      (dw): Conv2d(29, 29, kernel_size=(3, 3), stride=(1, 1), padding=(3, 3), dilation=(3, 3), groups=29)
    )
    (c2_2): BSConvU(
      (pw): Conv2d(29, 58, kernel_size=(1, 1), stride=(1, 1), bias=False)
      (dw): Conv2d(58, 58, kernel_size=(3, 3), stride=(1, 1), padding=(1, 1), groups=58)
    )
    (c3_1): BSConvU(
      (pw): Conv2d(58, 29, kernel_size=(1, 1), stride=(1, 1), bias=False)
      (dw): Conv2d(29, 29, kernel_size=(3, 3), stride=(1, 1), padding=(5, 5), dilation=(5, 5), groups=29)
    )
    (c3_2): BSConvU(
      (pw): Conv2d(29, 58, kernel_size=(1, 1), stride=(1, 1), bias=False)
      (dw): Conv2d(58, 58, kernel_size=(3, 3), stride=(1, 1), padding=(1, 1), groups=58)
    )
    (c3): BSConvU(
      (pw): Conv2d(58, 29, kernel_size=(1, 1), stride=(1, 1), bias=False)
      (dw): Conv2d(29, 29, kernel_size=(3, 3), stride=(1, 1), padding=(1, 1), groups=29)
    )
    (d1): Conv2d(58, 29, kernel_size=(1, 1), stride=(1, 1), bias=False)
    (d2): Conv2d(87, 29, kernel_size=(1, 1), stride=(1, 1), bias=False)
    (d3): Conv2d(87, 29, kernel_size=(1, 1), stride=(1, 1), bias=False)
    (act): GELU(approximate='none')
    (c5): Conv2d(116, 58, kernel_size=(1, 1), stride=(1, 1))
    (esa): ESA(
      (conv1): Conv2d(58, 14, kernel_size=(1, 1), stride=(1, 1))
      (conv_f): Conv2d(14, 14, kernel_size=(1, 1), stride=(1, 1))
      (maxPooling): MaxPool2d(kernel_size=7, stride=3, padding=0, dilation=1, ceil_mode=False)
      (conv_max): BSConvU(
        (pw): Conv2d(14, 14, kernel_size=(1, 1), stride=(1, 1), bias=False)
        (dw): Conv2d(14, 14, kernel_size=(3, 3), stride=(1, 1), padding=(1, 1), groups=14)
      )
      (conv2): BSConvU(
        (pw): Conv2d(14, 14, kernel_size=(1, 1), stride=(1, 1), bias=False)
        (dw): Conv2d(14, 14, kernel_size=(3, 3), stride=(2, 2), groups=14)
      )
      (conv3): BSConvU(
        (pw): Conv2d(14, 14, kernel_size=(1, 1), stride=(1, 1), bias=False)
        (dw): Conv2d(14, 14, kernel_size=(3, 3), stride=(1, 1), padding=(1, 1), groups=14)
      )
      (conv3_): BSConvU(
        (pw): Conv2d(14, 14, kernel_size=(1, 1), stride=(1, 1), bias=False)
        (dw): Conv2d(14, 14, kernel_size=(3, 3), stride=(1, 1), padding=(1, 1), groups=14)
      )
      (conv4): Conv2d(14, 58, kernel_size=(1, 1), stride=(1, 1))
      (sigmoid): Sigmoid()
      (GELU): GELU(approximate='none')
    )
    (cca): CCALayer(
      (avg_pool): AdaptiveAvgPool2d(output_size=1)
      (conv_du): Sequential(
        (0): Conv2d(58, 3, kernel_size=(1, 1), stride=(1, 1))
        (1): ReLU(inplace=True)
        (2): Conv2d(3, 58, kernel_size=(1, 1), stride=(1, 1))
        (3): Sigmoid()
      )
    )
  )
  (B8): B9(
    (c1_1): BSConvU(
      (pw): Conv2d(58, 29, kernel_size=(1, 1), stride=(1, 1), bias=False)
      (dw): Conv2d(29, 29, kernel_size=(3, 3), stride=(1, 1), padding=(1, 1), groups=29)
    )
    (c1_2): BSConvU(
      (pw): Conv2d(29, 58, kernel_size=(1, 1), stride=(1, 1), bias=False)
      (dw): Conv2d(58, 58, kernel_size=(3, 3), stride=(1, 1), padding=(1, 1), groups=58)
    )
    (c2_1): BSConvU(
      (pw): Conv2d(58, 29, kernel_size=(1, 1), stride=(1, 1), bias=False)
      (dw): Conv2d(29, 29, kernel_size=(3, 3), stride=(1, 1), padding=(3, 3), dilation=(3, 3), groups=29)
    )
    (c2_2): BSConvU(
      (pw): Conv2d(29, 58, kernel_size=(1, 1), stride=(1, 1), bias=False)
      (dw): Conv2d(58, 58, kernel_size=(3, 3), stride=(1, 1), padding=(1, 1), groups=58)
    )
    (c3_1): BSConvU(
      (pw): Conv2d(58, 29, kernel_size=(1, 1), stride=(1, 1), bias=False)
      (dw): Conv2d(29, 29, kernel_size=(3, 3), stride=(1, 1), padding=(5, 5), dilation=(5, 5), groups=29)
    )
    (c3_2): BSConvU(
      (pw): Conv2d(29, 58, kernel_size=(1, 1), stride=(1, 1), bias=False)
      (dw): Conv2d(58, 58, kernel_size=(3, 3), stride=(1, 1), padding=(1, 1), groups=58)
    )
    (c3): BSConvU(
      (pw): Conv2d(58, 29, kernel_size=(1, 1), stride=(1, 1), bias=False)
      (dw): Conv2d(29, 29, kernel_size=(3, 3), stride=(1, 1), padding=(1, 1), groups=29)
    )
    (d1): Conv2d(58, 29, kernel_size=(1, 1), stride=(1, 1), bias=False)
    (d2): Conv2d(87, 29, kernel_size=(1, 1), stride=(1, 1), bias=False)
    (d3): Conv2d(87, 29, kernel_size=(1, 1), stride=(1, 1), bias=False)
    (act): GELU(approximate='none')
    (c5): Conv2d(116, 58, kernel_size=(1, 1), stride=(1, 1))
    (esa): ESA(
      (conv1): Conv2d(58, 14, kernel_size=(1, 1), stride=(1, 1))
      (conv_f): Conv2d(14, 14, kernel_size=(1, 1), stride=(1, 1))
      (maxPooling): MaxPool2d(kernel_size=7, stride=3, padding=0, dilation=1, ceil_mode=False)
      (conv_max): BSConvU(
        (pw): Conv2d(14, 14, kernel_size=(1, 1), stride=(1, 1), bias=False)
        (dw): Conv2d(14, 14, kernel_size=(3, 3), stride=(1, 1), padding=(1, 1), groups=14)
      )
      (conv2): BSConvU(
        (pw): Conv2d(14, 14, kernel_size=(1, 1), stride=(1, 1), bias=False)
        (dw): Conv2d(14, 14, kernel_size=(3, 3), stride=(2, 2), groups=14)
      )
      (conv3): BSConvU(
        (pw): Conv2d(14, 14, kernel_size=(1, 1), stride=(1, 1), bias=False)
        (dw): Conv2d(14, 14, kernel_size=(3, 3), stride=(1, 1), padding=(1, 1), groups=14)
      )
      (conv3_): BSConvU(
        (pw): Conv2d(14, 14, kernel_size=(1, 1), stride=(1, 1), bias=False)
        (dw): Conv2d(14, 14, kernel_size=(3, 3), stride=(1, 1), padding=(1, 1), groups=14)
      )
      (conv4): Conv2d(14, 58, kernel_size=(1, 1), stride=(1, 1))
      (sigmoid): Sigmoid()
      (GELU): GELU(approximate='none')
    )
    (cca): CCALayer(
      (avg_pool): AdaptiveAvgPool2d(output_size=1)
      (conv_du): Sequential(
        (0): Conv2d(58, 3, kernel_size=(1, 1), stride=(1, 1))
        (1): ReLU(inplace=True)
        (2): Conv2d(3, 58, kernel_size=(1, 1), stride=(1, 1))
        (3): Sigmoid()
      )
    )
  )
  (c1): Conv2d(464, 58, kernel_size=(1, 1), stride=(1, 1), padding=(1, 1))
  (GELU): GELU(approximate='none')
  (c2): BSConvU(
    (pw): Conv2d(58, 58, kernel_size=(1, 1), stride=(1, 1), bias=False)
    (dw): Conv2d(58, 58, kernel_size=(3, 3), stride=(1, 1), groups=58)
  )
  (upsampler): Sequential(
    (0): Conv2d(58, 48, kernel_size=(3, 3), stride=(1, 1), padding=(1, 1))
    (1): PixelShuffle(upscale_factor=4)
  )
)
[Epoch 1]	Learning rate: 1.00e-3
[6400/63180]	[L1: 0.0921]	7.8+2.5s
[12800/63180]	[L1: 0.0685]	6.4+1.2s
[19200/63180]	[L1: 0.0591]	6.6+1.1s
[25600/63180]	[L1: 0.0540]	6.7+0.9s
[32000/63180]	[L1: 0.0507]	6.7+0.9s
[38400/63180]	[L1: 0.0484]	6.7+1.0s
[44800/63180]	[L1: 0.0466]	6.8+0.8s
[51200/63180]	[L1: 0.0453]	6.8+0.8s
…
